lib_task_api/src/main/assets/model.tflite (tflite, 184785 bytes, 5 tensors)

sequential/embedding/embedding_lookup/23082 f4 [2379, 16]
000000 0b 5e c3 bb 7a 7b ff 3c d0 d1 47 3d 11 8f f1 3a
       -0.0059621385 0.031186808 0.048784077 0.0018429478
000010 78 1c a4 3c b9 66 60 bd 36 31 84 bd bf d4 b6 3b
       0.020033106 -0.054785464 -0.06454699 0.0055795605
000020 51 b3 13 bd 28 e1 0a bd 31 ad 66 3d e9 c5 6c bd
       -0.03605968 -0.033906132 0.056317512 -0.05780593
000030 cb 41 0c bd 72 c7 72 be cc 4c 9e bc e4 8e ef bc
       -0.034242433 -0.23708895 -0.019323729 -0.02924294
000040 10 6d c5 3c 4f 32 57 bc b5 b8 76 3d e3 f2 28 bc
       0.024099857 -0.013134553 0.060234744 -0.010311815
000050 a3 11 1d 3c 2b 32 99 bd d7 60 37 bb 10 93 9d bc
       0.009586724 -0.07480272 -0.0027981305 -0.019235164
000060 a3 1a f6 bc 9d 91 4c 3d 69 ad e7 3c 71 9c 35 bc
       -0.030041998 0.049943555 0.02828093 -0.011084662
000070 54 dc 05 bd 5d 03 3e be 3d 01 8f bc 98 fb 42 bd
       -0.032680824 -0.1855597 -0.017456645 -0.04760322
000080 cd 8b 1f bd b0 b0 c5 3b 07 a2 c1 bc 17 9e 3e bd
       -0.038951684 0.0060330257 -0.023636831 -0.046537485
000090 02 29 ed 3c 80 2e 97 39 40 b3 6b 3a 6e 06 e7 3c
       0.028950218 0.0002883561 0.0008991249 0.028201308
0000a0 b4 3a 28 bc 28 24 36 bc c7 46 0c 3d 79 b3 33 3d
       -0.010267902 -0.011117019 0.034247186 0.04387233
0000b0 2e 6a 8e 3c 31 2a 23 3d 2e 76 de 3c 21 8f 0b 3d
       0.017384615 0.03983516 0.027155962 0.034072045
0000c0 dd 0f 8f 3e a9 97 c4 3e e6 78 c3 3e 50 f9 bf be
       0.2794179 0.38396958 0.38178176 -0.37494898
0000d0 d1 02 98 3e 73 49 b5 be 33 4b 90 3e 53 72 b1 3e
       0.2968965 -0.354076 0.28182372 0.34657535
0000e0 33 ac b2 be e6 79 92 3e 68 f3 a9 be a8 90 ab 3e
       -0.34897003 0.28608626 -0.33193517 0.335088
0000f0 fd 77 83 3e 3a 23 4e 3c a3 48 a8 be 71 16 a6 3e
       0.2567748 0.012581641 -0.32867917 0.32438996
000100 cf ab 0f 3f 89 a5 2c 3f dd 27 1e 3f f0 52 29 bf
       0.56121534 0.67440087 0.61779577 -0.6614218
000110 c5 5f 2c 3f 29 2f 28 bf d5 e0 23 3f 8d f5 30 3f
       0.6733363 -0.6569696 0.6401494 0.6912468
000120 bf 3b 20 bf 56 77 1f 3f f5 f5 2d bf b4 73 1b 3f
       -0.62591165 0.6229147 -0.67953426 0.60723424
000130 f5 80 0a 3f a0 0d 88 3d c9 54 25 bf 38 6b 1d 3f
       0.5410302 0.06643224 -0.64582497 0.6149173
000140 27 2c bb 3e 2a 1c 00 3f 2c ab fa 3e 68 58 04 bf
       0.36557123 0.50042975 0.4895872 -0.516974
000150 d2 86 f6 3e e0 64 eb be 35 49 d5 3e cf 6f ee 3e
       0.48149735 -0.459754 0.41657415 0.46569678
000160 8b 6b f8 be 95 97 e6 3e 33 53 e1 be 03 2c d6 3e
       -0.4851955 0.45037523 -0.44008788 0.41830453
000170 b1 5d d3 3e 93 39 7a 3d 50 f7 db be 81 c8 dd 3e
       0.41282418 0.061090063 -0.42962122 0.43317035
000180 ee 7e 96 be 74 35 95 be 9a 3e 92 be ab df 9a 3e
       -0.29393715 -0.29142344 -0.28563386 0.3024877
000190 d4 ab 7f be 7b 52 85 3e c3 d0 a7 be 81 b0 81 be
       -0.24967891 0.2603949 -0.3277646 -0.25329974
0001a0 9d 1b 83 3e 64 10 4f be 97 d3 93 3e ad 72 b9 be
       0.25607005 -0.20221096 0.28872368 -0.36220303
0001b0 26 f3 a8 be 4a 0d ef be 88 54 9f 3e f7 58 6c be
       -0.32998008 -0.46689826 0.3111918 -0.23080812
0001c0 c4 9e e2 3e b7 a7 0e 3f 05 f6 0e 3f e4 97 19 bf
       0.44261754 0.5572466 0.55844146 -0.5999739
0001d0 bb 19 f8 3e bd 03 f9 be ee 22 0c 3f e1 c3 14 3f
       0.4845713 -0.48635665 0.547408 0.5811139
0001e0 48 84 f9 be f7 91 ea 3e 6c d1 0c bf ef 6a d7 3e
       -0.48733735 0.45814487 -0.5500705 0.4207377
0001f0 ff d4 f7 3e 0e eb 60 be 5a b1 03 bf 4b f5 f8 3e
       0.4840469 -0.21964666 -0.5144249 0.48624644
000200 62 73 f6 bd e4 0f 28 be a9 5d 37 be 9b d8 5b 3e
       -0.12033726 -0.16412312 -0.17906822 0.21469347
000210 47 8c 22 be 9e 19 fc 3d db aa 9a be 22 3a 49 be
       -0.15873824 0.123095736 -0.30208477 -0.19651082
000220 61 4d 6d 3e 78 44 0e be 5c d3 94 3e 8f c9 68 be
       0.23174049 -0.13893306 0.29067504 -0.22733139
000230 57 8d 38 be a0 cd 0e bf 72 7d 69 3e d2 9d 43 be
       -0.18022667 -0.5578251 0.2280176 -0.19103172
000240 21 a0 1d 3f 52 1e 35 3f ae c3 33 3f 6c 96 30 bf
       0.6157246 0.7074939 0.7022046 -0.68979526
000250 73 37 33 3f cc f8 2e bf 56 bb 34 3f 44 ea 3b 3f
       0.70006484 -0.68348384 0.7059835 0.73404336
000260 0b c3 30 bf 86 9e 2f 3f 25 90 29 bf 26 a8 28 3f
       -0.6904761 0.6860126 -0.6623557 0.65881574
000270 ed 75 17 3f c4 0d 96 3e 4e 63 28 bf 78 ef 18 3f
       0.59164315 0.29307377 -0.65776527 0.597404
000280 20 ef 20 3f cf fa 47 3f 27 5c 45 3f d7 bd 4b bf
       0.62864876 0.7811708 0.7709374 -0.7958655
000290 aa 32 46 3f 9c d9 35 bf 5f b7 4f 3f f8 f5 46 3f
       0.7742106 -0.7103517 0.8113918 0.7771907
0002a0 48 34 4a bf 99 be 2a 3f b6 0d 39 bf 18 43 2c 3f
       -0.78986025 0.6669708 -0.72286546 0.67289877
0002b0 8c 68 35 3f f7 e7 b9 3e 2c ff 43 bf 2c 1b 37 3f
       0.7086265 0.36309788 -0.76561236 0.71525836
0002c0 62 29 a6 3e 19 13 e8 3e 6f 6d ec 3e 40 cf e4 be
       0.32453448 0.4532707 0.4617724 -0.4468937
0002d0 4b 20 e1 3e 96 0e d3 be 1b 54 b5 3e 45 b4 d4 3e
       0.4396995 -0.41222066 0.3541573 0.41543785
0002e0 4b 3c bc be 0c 77 b1 3e 23 9d ba be 93 35 b0 3e
       -0.3676475 0.34661138 -0.3644801 0.34415874
0002f0 bf 45 d0 3e c6 49 5f be be bd a5 be dd 67 bf 3e
       0.40678212 -0.21805486 -0.32371324 0.3738393
000300 c0 9c bf bf 14 0b cf bf 2c 06 ce bf 7c b6 ca 3f
       -1.4969711 -1.6175256 -1.6095634 1.583694
000310 c1 39 cd bf f0 73 c0 3f 02 99 d3 bf 9a 44 ce bf
       -1.603325 1.5035381 -1.6531069 -1.6114686
000320 5a 58 cf 3f f5 58 c2 bf 7b cb cd 3f 1d 1d d0 bf
       1.6198838 -1.5183398 1.6077722 -1.6258885
000330 ed 87 c8 bf c8 36 bd bf 78 e0 cd 3f 28 fe c8 bf
       -1.5666481 -1.4782343 1.6084127 -1.5702562
000340 5b 6d b8 3e bf 79 03 3f 70 03 f3 3e 1e f6 03 bf
       0.36020932 0.51357645 0.4746356 -0.5154742
000350 80 a1 ef 3e 75 3b ce be d6 d5 f7 3e 40 ce eb 3e
       0.46802902 -0.40279737 0.4840533 0.46055794
000360 e7 e5 da be a4 5d b4 3e b9 bb dd be e3 95 cd 3e
       -0.42753527 0.35227692 -0.43307284 0.40153417
000370 ee 04 d2 3e 20 f2 b2 bc 9d b4 e9 be b6 b1 d8 3e
       0.41019386 -0.02184397 -0.4564561 0.42323083
000380 c5 cf 30 3e 3d aa a7 3e 72 b8 81 3e c8 b9 7f be
       0.17266758 0.3274707 0.25336033 -0.24973214
000390 15 b6 8e 3e df 6a 57 be c9 b4 93 3e 81 36 b1 3e
       0.27873293 -0.21036862 0.28848866 0.34611896
0003a0 78 e2 a2 be 9f 26 7d 3e 2b b2 8a be 54 1d 25 3e
       -0.31813407 0.24721764 -0.27089056 0.16124469
0003b0 fc eb 7e 3e 87 37 43 bd be 0f 5d be 7c 9f 85 3e
       0.24894708 -0.047660377 -0.21588036 0.2609824
0003c0 00 3b 97 be 77 b7 b1 be 2c 94 b5 be 15 0b c7 3e
       -0.295372 -0.34710285 -0.3546461 0.38875642
0003d0 ce 6c a1 be a0 92 93 3e a6 8a ee be a6 e6 b8 be
       -0.31528324 0.28822803 -0.46590155 -0.3611347
0003e0 5a a4 c1 3e c0 32 96 be 0f cd cb 3e 54 c6 ce be
       0.37820703 -0.29335594 0.39804885 -0.40385687
0003f0 19 c1 c3 be 31 e8 1f bf b8 13 af 3e 91 71 a2 be
       -0.3823326 -0.6246367 0.34194732 -0.3172727

sequential/dense_1/BiasAdd/ReadVariableOp/resource f4 [2]
000000 64 6c d4 be 65 6c d4 3e
       -0.41488945 0.41488948

sequential/dense/BiasAdd/ReadVariableOp/resource f4 [16]
000000 65 be dd 3d 00 00 00 00 9a 3e 42 3d f4 bf 25 3d
       0.108273305 0.0 0.047422983 0.040466264
000010 10 44 86 bd 28 38 4f bb 9a df 35 3d 78 e8 85 3d
       -0.06555951 -0.0031619165 0.044402696 0.065384805
000020 26 ad d2 3d 04 4e 99 3c c7 95 05 3d ad 5a e1 3d
       0.10286932 0.018713959 0.032613542 0.11003623
000030 ea e4 b3 3d 21 76 90 bd ac d2 a8 3d d8 96 97 3d
       0.08783896 -0.07053781 0.082433075 0.07401818

sequential/dense/MatMul f4 [16, 16]
000000 23 98 99 bf 98 ba b1 bf 6c c1 52 bf 65 5d fa 3f
       -1.1999553 -1.3885069 -0.8232639 1.9559752
000010 4b eb 71 bf 8f 24 d1 3e e8 cb d0 be 42 2a b7 bf
       -0.94499654 0.40848204 -0.40780568 -1.4309771
000020 01 55 3e 3f 97 40 92 bf 72 5e d1 3e 3d 4a 97 bf
       0.74348456 -1.1425961 0.4089237 -1.1819531
000030 1a 58 a4 bf ce 09 12 bf 32 65 bc 3f 32 ce b5 bf
       -1.2839386 -0.5704621 1.4718382 -1.4203551
000040 16 40 89 be 35 e7 50 be bb 21 63 be 04 61 cb bd
       -0.26806706 -0.20400698 -0.22180836 -0.09930614
000050 0d 15 a2 3e 76 97 5c 3e f8 d5 1f bd 2a db 7d 3e
       0.31656685 0.21542153 -0.039022416 0.24790636
000060 7e 4d 79 3e 8c 1b b8 3d 3d 72 c8 be 64 43 d0 bd
       0.24345967 0.08989629 -0.39149657 -0.10169104
000070 1c 2d 83 3d 64 40 95 3d ca 23 6c 3e d8 68 d2 be
       0.06405088 0.07287672 0.23060527 -0.41095614
000080 da 5e c5 3f a0 c5 87 3f 33 d0 af 3e ec 03 e6 bf
       1.5419571 1.0607185 0.3433853 -1.7969947
000090 32 94 86 3f 4f d7 21 bf 32 86 0f 3f 83 ef e5 3f
       1.0513976 -0.6321916 0.5606414 1.7963718
0000a0 b7 af e1 be e6 56 4b 3f a6 e5 54 bf 40 80 a2 3e
       -0.44079372 0.7942947 -0.83162916 0.31738472
0000b0 75 3a 20 3f 0c 93 b9 be 86 fd 5b bf 8b bd 8a 3f
       0.625892 -0.36245 -0.8593372 1.0839094
0000c0 9b 68 d6 3f c9 f4 95 3f 7a bc 88 3f a4 50 ee bf
       1.6750673 1.1715328 1.0682518 -1.861836
0000d0 1a 9e 87 3f 63 31 14 bf 8b b4 33 3d 66 9b d2 3f
       1.0595124 -0.5788786 0.04387335 1.6453674
0000e0 dd d0 cc be ff 17 6a 3f 62 f0 d9 be f0 86 17 3f
       -0.400031 0.91442865 -0.4256621 0.59190273
0000f0 04 9d 27 3f f6 1f 4e be 18 47 af bf 0d a9 8d 3f
       0.6547396 -0.2012938 -1.3693571 1.1067215
000100 c1 ed 05 be 70 7c a7 3d 69 68 7c be 9d 1d 03 be
       -0.13078977 0.081780314 -0.24649204 -0.12804265
000110 ec 95 bc 3c 88 37 ab bd e2 5f ab 3e b8 e8 ad 3e
       0.023020707 -0.08360201 0.3347159 0.33966613
000120 de 2d 3a ba 5e af 4c 3c 94 59 dd be e7 04 cb 3e
       -0.00071021717 0.012492983 -0.43232405 0.39652178
000130 79 0b 9a be 51 d0 b0 3d 43 72 a3 be 00 21 32 be
       -0.30086878 0.08633483 -0.31923112 -0.17395401
000140 e5 40 14 3e e2 57 ec 3b 07 d9 36 be 8d 13 18 bd
       0.1447788 0.007212625 -0.17856227 -0.03712802
000150 fb 20 c2 3d 99 f8 c1 be 27 b4 3d 3e d9 71 0f 3d
       0.09478947 -0.37884977 0.18525754 0.035020683
000160 a3 2a f3 3d a3 4f fc 3d a6 90 2d 3e 14 b5 1b 3d
       0.11873367 0.12319877 0.1694971 0.038014486
000170 a8 47 48 3d dd 42 d4 3e 2c a1 59 bd da c2 cd be
       0.04889646 0.41457263 -0.05313222 -0.40187722
000180 0d ea ae 3f 2d d0 90 3f 21 73 8d 3f 51 ba fc bf
       1.3665177 1.131353 1.105076 -1.9744359
000190 7e 2e 58 3f 81 e2 77 be 2a 99 41 3e a8 4f da 3f
       0.8444594 -0.24207498 0.18906084 1.7055559
0001a0 6d 4d 5f bf b5 0d 81 3f 64 1e 04 bf 46 53 21 3f
       -0.8722752 1.0082308 -0.5160887 0.6301769
0001b0 16 bd 34 3f 66 e3 63 be 33 37 98 bf d4 44 91 3f
       0.7060102 -0.22254714 -1.1891845 1.134913
0001c0 90 66 ff bf 52 a3 3a bf fa 82 82 bf 07 0a 15 40
       -1.9953175 -0.7290546 -1.0196221 2.328737
0001d0 bd af d3 bf fa d7 10 3f 21 54 5b bf 46 af e1 bf
       -1.6538006 0.56579554 -0.85675246 -1.7631614
0001e0 00 e7 4e 3f 50 d0 52 bf c6 26 35 3f 49 48 87 bf
       0.8082123 -0.8234911 0.7076229 -1.0568935
0001f0 42 5f 2d bf f0 e8 fe be 84 b4 b6 3f cd b1 5a bf
       -0.67723477 -0.49787092 1.4273839 -0.8542755
000200 14 b5 da bf b7 80 b1 bf 6e 59 43 bf f6 9f 08 40
       -1.7086511 -1.3867406 -0.76308334 2.1347632
000210 8f ad 65 bf 65 63 15 3f db 18 8e bf fe 10 e1 bf
       -0.89717954 0.5835479 -1.1101335 -1.7583311
000220 cd 6b 56 3f 18 a8 97 bf ed 1f 89 3f b1 09 56 bf
       0.8375824 -1.1848173 1.0712868 -0.8360854
000230 00 78 93 bf 4d 09 ad be 95 66 9a 3f ae bd 5b bf
       -1.1520996 -0.33796158 1.2062556 -0.85836303
000240 a2 04 81 3f 19 26 92 3f 3a f8 8e 3f 3f 9a 00 c0
       1.0079539 1.1417876 1.1169503 -2.0094144
000250 27 f9 bd 3f 2d 87 d7 be 04 8f 15 3f 3a 5f f5 3f
       1.484166 -0.42095318 0.5842135 1.9169686
000260 8c 9e 55 bf 17 65 e9 3e 72 62 4f bf 94 9a 5b 3e
       -0.8344505 0.45584938 -0.8100959 0.21445686
000270 16 37 83 3f 84 18 73 be 87 fe 4c bf f2 4a 80 3f
       1.0251186 -0.2373982 -0.8007588 1.0022871
000280 6e f2 e9 3f 3e df 93 3f 09 20 af 3e e5 92 e4 bf
       1.8277109 1.1552503 0.34204128 -1.7857329
000290 cb 8d b0 3f 58 e2 75 bf 89 b1 c2 3e fd 2d d6 3f
       1.3793272 -0.960485 0.38026074 1.6732785
0002a0 45 65 88 bf 06 c9 02 3f bf f7 ef be c8 94 58 3f
       -1.0655905 0.5108799 -0.46868703 0.8460202
0002b0 22 92 8c 3f 79 c5 95 be d6 6d 93 bf 6a 3d 60 3f
       1.0982096 -0.29252222 -1.1517894 0.8759371
0002c0 40 79 95 bf 31 5f a9 bf 57 a4 09 bf 8b cf e9 3f
       -1.1677628 -1.3232175 -0.5376639 1.8266462
0002d0 f9 08 a1 bf d1 5e 52 3f ef 38 91 bf 7c 2f 00 c0
       -1.2580863 0.8217593 -1.13455 -2.0028982
0002e0 0b aa 95 3f 0a 80 0f bf b6 b7 83 3f d0 8e 89 bf
       1.1692518 -0.5605475 1.0290439 -1.0746708
0002f0 c2 52 8f bf cb 61 9e be f2 be bf 3f 41 c3 a7 bf
       -1.1197131 -0.30933985 1.4980147 -1.3106462
000300 3e 33 a9 3f 5f ea 96 3f ee d5 83 3f c0 1f f9 bf
       1.3218763 1.1790274 1.0299661 -1.9462814
000310 34 45 80 3f e2 a6 83 bf af 08 15 3f 30 9f ef 3f
       1.0021119 -1.0285304 0.58216375 1.8720455
000320 c3 a8 84 bf 72 d3 80 3f 97 5c c7 bd 0d 3f 10 3f
       -1.0364002 1.0064528 -0.09734457 0.5634621
000330 2b 53 01 3f 80 80 67 3e 7f 77 a4 bf 5e d9 75 3f
       0.5051753 0.22607613 -1.2848967 0.960348
000340 43 59 d9 be 06 19 a1 3e 3d 98 0c bd ac be c3 3e
       -0.42450914 0.31464404 -0.034324873 0.3823141
000350 1c fc 6a 3e eb e3 55 3e f9 24 51 bd 23 5e 8d 3d
       0.22947735 0.20887725 -0.05106065 0.06902721
000360 3c 04 44 be a4 3e c9 3e a0 ce 0b bd 42 ca 9c 3e
       -0.1914224 0.39305604 -0.0341326 0.3062306
000370 b2 ac ac 3e d3 3a 4c bd 8b 7c 94 3d d0 8c c2 3e
       0.33725506 -0.049860787 0.07250317 0.37998056
000380 e2 05 c1 3f 87 42 a8 3f ec 1c 74 3f 9e 47 cf bf
       1.507992 1.3145303 0.9535663 -1.6193731
000390 0c c7 a4 3f 9e f0 dd be ef f3 f9 3e fb 11 fe 3f
       1.2873244 -0.4334764 0.4881892 1.9849237
0003a0 5d 1f 79 bf 95 71 10 3f 31 0c 32 bf 63 04 33 3f
       -0.9731348 0.5642331 -0.6954985 0.6992857
0003b0 51 07 c5 3e d4 be 18 3e e0 a3 bc bf 42 c2 d6 3e
       0.38482144 0.14916545 -1.4737511 0.41945082
0003c0 fb 10 cb 3f 0a 2e b6 3f a8 5d 35 3f 7a 62 ed bf
       1.5864557 1.42328 0.70846033 -1.8545678
0003d0 b3 2e 7e 3f c7 d3 72 bf 58 aa 03 3f c3 86 d1 3f
       0.9929001 -0.94854397 0.514318 1.6369251
0003e0 e3 b8 f6 be 63 2f 0d 3f 93 f4 e7 be 73 c5 20 3e
       -0.48187932 0.5515043 -0.45303783 0.15700321
0003f0 e6 0d 70 3f 95 96 01 3d 32 8d 94 bf 40 4b 3d 3f
       0.9377121 0.031637747 -1.1605589 0.7394295

sequential/dense_1/MatMul f4 [2, 16]
000000 a5 76 cf bf fc 87 5a 3e a7 75 ce 3f c5 e9 ab 3f
       -1.6208082 0.21340936 1.6129655 1.3430716
000010 31 ae 63 be 75 e4 eb be b6 0f e3 3f 2c 71 f3 bf
       -0.22234417 -0.46072736 1.773917 -1.9018912
000020 40 bd 89 bf 62 3f d6 3f c8 d9 81 3f d0 31 fb bf
       -1.076088 1.6738093 1.0144587 -1.9624577
000030 a0 58 02 40 17 07 6f 3d 78 62 ea 3f b4 4c b1 3f
       2.0366592 0.05835637 1.83113 1.3851533
000040 71 04 71 3f fc d8 90 3e 49 b8 d2 bf 05 14 ad bf
       0.941474 0.28290546 -1.6462489 -1.3521734
000050 a8 98 8f 3e fc 15 a6 be 01 ae c7 bf 0b c8 c1 3f
       0.28046155 -0.32438648 -1.5599977 1.5139173
000060 45 1f da 3f f4 69 f0 bf 5e 31 f7 bf 47 f6 6b 3f
       1.7040793 -1.8782334 -1.9311941 0.92172664
000070 9b 71 a2 bf 30 34 12 3e 6d 36 d4 bf 8c d5 e7 bf
       -1.269092 0.1427772 -1.657911 -1.8112044
